saved_claim_gan_model/model_weights.pth (torch, 103588 bytes, 26 tensors)

net.0.weight f4 [128, 10]
00000000: a21f d93d 29ce 69be ca6a 88bd 396f 11be
00000010: d1a9 36be 37d2 0abe 3237 f63b bb0a 2b3d
00000020: 921b 293e a660 213e c682 80be 588c 56be
00000030: b1b3 8c3d fa88 c63d 64d3 8e3e 70c1 67be
00000040: 5426 fb3d ffce 8b3e c647 56be f439 95be
00000050: cac6 3fbc 5054 aa3d 7d1c 85bd 7982 523e
00000060: 4f66 9b3e 8244 713e fecf bbbd 92db bcbd
00000070: ab02 d33d 2b0a 7a3d 2d50 3abe d737 5cbd
00000080: 8040 903e 98c7 81be 68dd 94be 1d74 48be
00000090: a4c3 bc3d 9a23 943e 510d 61bd 1bcd 053e
000000a0: ba64 aebd 3eff 093d 4441 04be 42af 0b3e
000000b0: af69 dbbd cb27 7dbe 9333 63bd 49c9 e6bd
000000c0: 1327 443e dfaa 463d 0338 4dbe 30de d63d
000000d0: d53e 503e a8aa 9b3e af01 5c3e 34eb 5b3e
000000e0: 3fcc ed3d 3642 c5bc abe5 82be c83e 293e
000000f0: c528 c13c 2bfc 19be 3f83 843e 4150 253e
00000100: 9204 84bc 2d90 d63c 4be8 08be 41ff cbbd
00000110: 07c3 723e 3d7e 723e 0387 a13e 83cc 973e
00000120: 29fa 5dbd f3b3 00bc 499b 213e fbff 96be
00000130: 4a21 14be 0a1f 3c3e aae1 df3d 7181 1b3e
00000140: f43c 9ebd 42b8 ef3d c6b2 95be c621 a23e
00000150: 7f7f 34bc 3b4f 5a3e e051 593e 9eaf 9ebd
00000160: c471 8f3e 42c8 a0bd 755a 9abe 7a86 8dbc
00000170: ceb0 cdbd c401 593e 525e 02be e9d6 20be
00000180: afe1 303d e636 703e e96a 8e3e bc42 86be
00000190: 563e 943e 9b07 ef3b 7920 1cbe 3f38 c53d
000001a0: 2991 bd3d dea2 5b3e 1bd0 1cbe 2cc2 3cbd
000001b0: b874 df3d 22ae 60be c5eb 79ba 24b6 f8bd
000001c0: f292 9cbe f484 923e d933 54be 5cbc 473d
000001d0: 0a08 403b 5479 e3bd 8d75 78be 2d4b 823e
000001e0: 3ee3 58be 7c8d 393e 3a08 b13d 9f15 7e3e
000001f0: 7cd3 5e3d 968e 0bbe af1a a7bd 200e e6bd
00000200: c40f e9bd d94c 04be 2c50 263e 49a2 833c
00000210: d7cd c2bd 1a82 4dbe a8f9 f4bd ccc3 b73d
00000220: 0fd1 8abe f8c5 56bd 4834 edbc 19dc 4e3c
00000230: 6049 f83c 1c40 c2bd b027 133e fd6c 84be
00000240: 9337 b03d 847b 95be 80e5 94be 0bcd 7f3e
00000250: fb0a 71be 0ab1 72be 9845 62be 634a 1d3e
00000260: bf01 9ebc 4f14 e63d 48b2 36be 66d3 84bd
00000270: e173 603e 5a2b fcbd 0d38 86be 0e21 dcbd
00000280: 6e47 3fbd f556 9e3e a50c 79be d724 88be
00000290: afd5 3e3e f388 08be b50e 783e 3f12 69bd
000002a0: c4af 293e 1b31 0a3d d36b d1bd a610 9ebe
000002b0: da66 983e 7063 8b3e 82ae 783e c486 dabd
000002c0: 32aa 8b3e 4720 03bd 26b9 4e3e 64c7 373c
000002d0: 991f 64be f0ea 92bd 91df 703e 46d0 73be
000002e0: 20b7 81be 3994 ecbd 7430 973e ffb0 8abe
000002f0: 86a4 e2bb 3e45 7cbd a23c 07be ee39 46be
00000300: 69cd c7bd 592a a53e cd8e 2e3d 4317 083d
00000310: 4fab 023e 784b 91be 390a 53be c1d1 04bd
00000320: ee78 0f3e 54f2 863e f31d 08bd c7cb 6a3e
00000330: 9ae0 8c3e 5898 13be 9e03 66bd da78 983e
00000340: 5a5e ff3d 8560 5abd 5b8d a23e ff49 8cbd
00000350: 5275 28bd c1fa 18bc c3f4 923e 2014 7a3e
00000360: 0858 743d 678d a8bd fbdf dc3c e1c3 d5bd
00000370: 3327 df3c 29f0 eebb 2815 9fbe 2aa9 0e3e
00000380: bc97 593c 4e9b 6cbe 140b 93be 7959 0b3d
00000390: 2944 0f3d a0d5 a1be 1d4e 8e3d b83e 10be
000003a0: 8ac0 393e 71d1 2b3e 7e82 81be 63f3 813e
000003b0: ebbd 963e 0d0c 9bbe 3e79 80be 0793 a7bc
000003c0: 7b9f 853e 7dde a1be 997a 2abe 3609 063d
000003d0: 1728 e3bd ce0f fcbd 7ecf 5f3e ec30 283e
000003e0: 9f68 5c3e bb1e cc3c 5e49 88be 6399 72be
000003f0: b657 86be 390e 123d 2fa7 1d3e 47be 85be
0.106017366 -0.2283255 -0.066609934 -0.14202584 -0.17838217 -0.13556753 0.007513904 0.04175828
0.16514423 0.15759525 -0.25099772 -0.20951974 0.06870211 0.09694095 0.27895653 -0.22632384
0.1226317 0.27306363 -0.20925817 -0.29145777 -0.01170511 0.083168626 -0.06499574 0.20557584
0.30351493 0.2356129 -0.09170531 -0.09221567 0.10303243 0.061044853 -0.18194647 -0.05376419
0.2817421 -0.2534759 -0.2907517 -0.19575544 0.09217003 0.28933412 -0.05494434 0.13066523
-0.08515306 0.033690684 -0.12915522 0.13641074 -0.10713517 -0.24722211 -0.055469107 -0.11268861
0.1915553 0.0485028 -0.20040898 0.10491598 0.20336469 0.30403638 0.21485017 0.21476442
0.116112225 -0.024079423 -0.25565848 0.16527855 0.02357901 -0.150376 0.25881383 0.16143896
-0.01611546 0.026191795 -0.13369863 -0.09960795 0.2370721 0.23680969 0.31548318 0.29648218
-0.05419365 -0.007855403 0.15781893 -0.29492173 -0.14465824 0.18371215 0.10931714 0.15186097
-0.0772647 0.11705066 -0.29237956 0.31666392 -0.011016726 0.21319287 0.21222639 -0.0774834
0.28016484 -0.07850696 -0.30147138 -0.017276037 -0.100434884 0.2119208 -0.12731293 -0.15706982
0.04318398 0.23458442 0.2781594 -0.2622279 0.2895381 0.007294608 -0.15246762 0.09629869
0.09256203 0.21448848 -0.15313761 -0.046083614 0.10910934 -0.21941426 -0.00095337286 -0.121441156
-0.3058086 0.2861706 -0.20722903 0.048763618 0.0029301667 -0.11107126 -0.24263592 0.2544798
-0.21180436 0.18120378 0.08644147 0.24812935 0.054400906 -0.13628611 -0.08159386 -0.11233163
-0.1137996 -0.1291994 0.1624152 0.016068595 -0.09511917 -0.20069161 -0.11961681 0.08972892
-0.27112624 -0.05243489 -0.028955594 0.012625718 0.030308425 -0.09484884 0.14370608 -0.258644
0.0860435 -0.29195797 -0.29081345 0.24980561 -0.23539345 -0.23700348 -0.2209686 0.15360408
-0.019287942 0.11234342 -0.17841446 -0.064856336 0.21919204 -0.12312956 -0.26214638 -0.10748492
-0.04669898 0.30925718 -0.2432123 -0.26590607 0.18636201 -0.13333492 0.2422436 -0.056902166
0.16570956 0.033738237 -0.10225644 -0.30872077 0.2976597 0.27224302 0.2428532 -0.10670236
0.27278286 -0.032013204 0.20187816 0.011216972 -0.22277679 -0.07173717 0.23522784 -0.23809919
-0.25335026 -0.11551709 0.29529154 -0.27088162 -0.0069165854 -0.061589472 -0.13206723 -0.19358036
-0.09755976 0.3225887 0.042616654 0.03322531 0.12760662 -0.2837789 -0.20609368 -0.0324266
0.14010975 0.26356757 -0.033231687 0.22929297 0.27515107 -0.14413583 -0.056155793 0.29779702
0.12469168 -0.053314704 0.3174847 -0.06850051 -0.04112751 -0.009337128 0.28702363 0.2442174
0.059654266 -0.08230095 0.026962271 -0.104377516 0.027240371 -0.007291813 -0.31070828 0.13931718
0.013280805 -0.23106119 -0.2871939 0.034020875 0.034977112 -0.31608295 0.06948493 -0.14086425
0.18139854 0.16779114 -0.2529487 0.25381002 0.2944177 -0.30282632 -0.250925 -0.02045585
0.26098236 -0.31615058 -0.1664833 0.032723628 -0.11091631 -0.12307702 0.21856496 0.16424912
0.21524285 0.024916997 -0.26618475 -0.23691325 -0.26238793 0.035658095 0.15395807 -0.26121733

net.0.bias f4 [128]
00000000: 5e77 69be 8b4a 4dbd 08de 333e 72d2 1bbd
00000010: 4a64 673e 55bd 263d 36ed a1bc 3611 943e
00000020: 44c0 09bd 7ade 083e 4c65 8c3e bb8d a1be
00000030: 01ff 553e 830d 583e a392 403e 26cc 213d
00000040: e5ff 42be 48fb 923e ca8f 64be b6c9 723d
00000050: 954e b2ba 95ec 183e 0ddc 84be dfe4 10be
00000060: 9e3f f63d daff e7bd 273a 333d b21b 2fbe
00000070: 9e67 033e 7bcb 953e 1007 4cbe 1e5b 1fbe
00000080: 78e0 e3bc 896a 99be 4753 80be e6eb 9e3e
00000090: 006c b73d 34de 3d3e fcba e8bd 7fd6 aa3c
000000a0: 449d 6f3e 8943 743d 5a69 4bbe 2d0a ac3d
000000b0: 0612 1d3e 46f2 ddbd fe55 b73b d350 9abe
000000c0: 04e7 443e bd41 993b 95fb 98be 5507 873e
000000d0: aac0 983e 2ec3 66be afac 64bd 065d d13b
000000e0: e6e5 67bc 08b5 8a3e f3a8 0abe c70f 73be
000000f0: e7e8 713d 638b 34be c8fb 1f3e b0cf 723e
00000100: c54c 0e3e 2545 a13e ce49 34be 69a2 0abe
00000110: 987c 973d b3c3 56be 2bd8 483e 6b72 5d3e
00000120: 76ba 083e 63bd 963e f33b d03d c337 94bd
00000130: 27ea 4abe aea0 293d c321 823e bcee e0bd
00000140: 7bff abbd d5cd 7a3e a219 7abe ae58 4d3e
00000150: 2b9b ea3d b392 133d ce82 683e c1e6 1bbe
00000160: 72d2 37be 1df7 9dbe 6255 a53d 0f23 c0bc
00000170: 285e 893d a108 1d3d 70d8 893e 4e07 f7bd
00000180: 7893 5dbe 41dd 9e3e 8a20 9abb 40d4 123e
00000190: 7f48 fe3c 5393 463c 0ada 52be 2c00 f0bd
000001a0: 17d1 65be 0b7d 21bd 9a96 51be c99b 423e
000001b0: f5d5 b5ba 0746 ef3c 703d 7ebe 2d82 88be
000001c0: 4b1a 6d3e d44f efbc 4e4e 023e f570 1b3e
000001d0: b381 82be 661b 01bd 099e 16bd 74cd b9bc
000001e0: ba9a c2bd 15c9 17bc 3e7e 1cbe aec0 68bd
000001f0: 24a4 61be 2c1e 6b3e b835 283e f489 a1be
-0.22799441 -0.050119918 0.17565167 -0.038042493 0.22596851 0.040707905 -0.019766431 0.2891938
-0.033630624 0.13366118 0.27421033 -0.31553444 0.20898058 0.21098904 0.18805937 0.03950133
-0.19042929 0.28707337 -0.22320476 0.059274398 -0.0013603742 0.14933999 -0.25949135 -0.14149807
0.12023853 -0.11328097 0.04375663 -0.17100409 0.12832496 0.29256806 -0.19924569 -0.15562102
-0.027816996 -0.29964092 -0.25063536 0.3103935 0.08956146 0.18541795 -0.113637894 0.020854233
0.23399836 0.05963472 -0.19864407 0.084003784 0.15338907 -0.108372256 0.005594968 -0.3013979
0.1922875 0.004677026 -0.29879442 0.2637278 0.2983449 -0.22535393 -0.055828746 0.006389263
-0.014153933 0.2709124 -0.13541012 -0.23736487 0.059060004 -0.17631297 0.1562339 0.23712039
0.13896473 0.31498066 -0.17606279 -0.13538517 0.07396811 -0.20973091 0.19613712 0.21625678
0.13352379 0.29441366 0.101676844 -0.07237198 -0.19815885 0.041413 0.25416383 -0.10983035
-0.083983384 0.24492581 -0.2442384 0.2005336 0.11455377 0.036028575 0.22706148 -0.15224744
-0.17951372 -0.30852595 0.08072926 -0.023454217 0.06707412 0.038338307 0.2692294 -0.1206194
-0.21638286 0.31028178 -0.004703586 0.1433878 0.031040428 0.012120086 -0.20590988 -0.11718783
-0.22443043 -0.03942589 -0.20467606 0.1900474 -0.0013872968 0.029208196 -0.24828124 -0.26661816
0.23154561 -0.02921287 0.12725183 0.15179808 -0.25489578 -0.03152027 -0.036771808 -0.022680975
-0.09502168 -0.00926425 -0.15282533 -0.05682438 -0.22035271 0.22960728 0.16426742 -0.31550562

net.1.weight f4 [128]
00000000: 1da4 7e3f 79ec 7f3f 234b 813f 5abd 813f
00000010: 58b5 803f c1e3 7c3f 57c8 7a3f db7e 813f
00000020: c3d2 7c3f 3844 803f 67f1 7d3f 5041 7b3f
00000030: c9a7 7d3f a26c 7d3f 99de 7c3f a9dc 833f
00000040: feb0 7d3f f784 7d3f 9a54 823f 4679 803f
00000050: 583f 7f3f 8d7f 813f c2b5 7e3f f534 7e3f
00000060: a5a9 7a3f 625e 823f d41c 793f 12dd 7e3f
00000070: 6b23 803f c139 7f3f 529c 7e3f 5743 7b3f
00000080: 7187 7c3f 63f0 7c3f 683a 813f 9609 7a3f
00000090: f083 803f 218b 7f3f 872c 803f 270b 7e3f
000000a0: ae42 7d3f 8f3f 853f be91 7d3f 9e05 813f
000000b0: b4ee 7e3f cdca 7e3f 07d2 7f3f d118 7c3f
000000c0: 4c95 7f3f 8028 803f ffb6 7d3f a143 803f
000000d0: 787d 7f3f f38e 7f3f ef81 803f a0cd 823f
000000e0: de53 7e3f 9808 803f c9f7 833f 238a 803f
000000f0: 6e51 803f f6dd 7c3f 1874 813f 2d80 7c3f
00000100: d700 813f 54e2 7d3f bd79 823f cbc1 7e3f
00000110: 1fed 813f b167 803f 966f 803f 5cb6 823f
00000120: 41c9 7f3f 7ecf 7d3f f918 803f 88bf 7d3f
00000130: 15f0 803f 6696 7f3f 582f 833f 5b72 803f
00000140: 080b 7d3f 6d38 803f 03ce 803f c1f0 7f3f
00000150: 50ea 813f 0222 7e3f 13c6 803f 66fa 7d3f
00000160: 271f 803f a9b4 7f3f 4330 813f 071b 803f
00000170: ef68 7f3f a833 823f 1619 853f 0c2f 803f
00000180: 62b4 7c3f 6c3b 7d3f 5e44 803f 9806 803f
00000190: d86e 7d3f 21d4 7c3f a732 813f cc40 7e3f
000001a0: 84b4 7e3f 093b 803f 3498 7d3f 86cb 7e3f
000001b0: 9f24 803f d6b3 813f 2a74 813f 2c43 813f
000001c0: 85f9 7f3f bc02 7f3f 3ce9 7a3f dbc4 873f
000001d0: 7083 7e3f 7f5d 803f 1618 813f d752 803f
000001e0: 8dfa 803f ff2f 7b3f aa98 7b3f c947 7e3f
000001f0: 8d57 7f3f da49 803f b61f 7e3f ef00 803f
0.99469167 0.99970204 1.0101055 1.013591 1.0055342 0.98785025 0.97961944 1.0116838
0.98759097 1.0020819 0.99196476 0.98146534 0.99084145 0.98993886 0.9877716 1.0301715
0.99098194 0.99031013 1.0182068 1.003701 0.9970603 1.011705 0.9949609 0.99299556
0.97915107 1.0185053 0.97309613 0.99556077 1.0010809 0.996975 0.99457276 0.9814963
0.9864417 0.988043 1.0095949 0.97670877 1.0040264 0.9982167 1.0013589 0.9923577
0.9892987 1.0410022 0.9905051 1.0079839 0.9958298 0.995282 0.9992985 0.98475367
0.99837184 1.001236 0.99107355 1.0020639 0.99800825 0.998275 1.0039653 1.0219002
0.9934672 1.0002623 1.0309993 1.0042156 1.002485 0.98776186 1.0113554 0.9863308
1.0078381 0.99173474 1.0193402 0.99514455 1.0150489 1.0031644 1.0034053 1.0211902
0.99916464 0.9914473 1.0007621 0.9912038 1.0073267 0.99838865 1.0248823 1.0034899
0.9884496 1.001722 1.006287 0.99976736 1.0149632 0.9927064 1.0060447 0.992102
1.0009507 0.9988504 1.0092853 1.0008248 0.9976949 1.0172014 1.0398281 1.0014358
0.9871274 0.98918796 1.0020864 1.0002012 0.9899726 0.98761183 1.0093583 0.9931762
0.99494195 1.0018016 0.9906037 0.995293 1.0011176 1.0133007 1.0113575 1.0098624
0.9999011 0.9961355 0.9801214 1.060695 0.9941931 1.0028533 1.0085475 1.0025281
1.0076462 0.9812011 0.9827982 0.99328285 0.99742967 1.0022538 0.9926714 1.0000285

net.1.bias f4 [128]
00000000: 61bc cb3b f1ec fa3b bad9 5a3b 59da 193b
00000010: 5dd6 493c 67f5 ffbb e0f2 61bc 9c77 073a
00000020: 41ed 09bc 58c8 fc3b 07ce 153b db78 57bc
00000030: 7a0a e53a e7ae e8bb ee39 03bc 5541 6c3c
00000040: e8c1 92bc 2240 1bbc c82d 863c f346 133a
00000050: 0d7a 84bb 2cc9 963c a01b 19bc 242c 32bc
00000060: 07a3 3fbc e8b7 a43c afdf afbc 5244 2e3b
00000070: 0bfe 57bb 3f21 583b e9f4 e33b f160 6abc
00000080: 742b d3bb b62b d7bb de72 8a3b bed6 94bc
00000090: 6910 6f3c 9a45 ea3a 0d68 713b 5812 b4bb
000000a0: 5c91 94bb bf5e ef3c f317 b8bb 84d6 1b3c
000000b0: b7f7 88bb 0101 eebb e0d1 58bb 7ee7 91bb
000000c0: 2f8e ae3b e654 81bb 96fc 82bb f34e dabb
000000d0: f854 a3bb 6a59 5dbb 59d1 c9bb 149f b53c
000000e0: 5254 81bb c42d bf3a 427c ea3c fba3 133a
000000f0: 217b 363c 49d1 21bc 4844 393c 742a 58bb
00000100: f8f0 323c 9f83 5bbb 78b0 ee3b 5dca 78ba
00000110: f9bf da3b 7686 383c 17a3 a53b d0ee e43c
00000120: 68d4 693a 4e19 5bbb 968b c3bb a275 90bc
00000130: c2ec 1f3c c884 c6bb 5a92 733c dc3b fb3b
00000140: 22a8 b4bb 46cf 853b e1f0 283c a87c 75bb
00000150: 38b0 9f3c 0c05 43bc e41a 6a3c 50dd a9bb
00000160: f790 103b c9f3 c93b 07a8 123c 5378 16b9
00000170: 67c7 63bb 9a75 053c 5142 f93c 1033 a03b
00000180: a71b c1ba a6e2 7e3b d6ae 403c 6ce3 98b9
00000190: bc58 01bc e2a9 6bbb 93c0 ac3b a472 16bc
000001a0: ec8f 8fbb 84ff 2f3b 053f 023b 927b 89bb
000001b0: 2f60 c93b 974e 8a3c bb2a c2b9 dc6e 1d3c
000001c0: 14de 27bc ed76 b43a 413e 33bc 372b 373d
000001d0: c9b7 d33b 2fbe a03b 248e 513c 4704 a3ba
000001e0: 13bb 653c 1d6f 31bc b787 ccbb 5d67 b83a
000001f0: 6ce8 89bb 2336 853c 6f4c 15bc 69a7 4ebb
0.006217525 0.00765764 0.0033393935 0.0023476093 0.012319175 -0.0078112367 -0.013790816 0.00051676645
-0.008418382 0.0077143125 0.0022858398 -0.013151373 0.0017474436 -0.007100928 -0.008009417 0.014419873
-0.017914727 -0.00947574 0.016379252 0.0005618177 -0.00404287 0.018406473 -0.009344965 -0.010874782
-0.011696584 0.020107225 -0.021468965 0.0026591015 -0.0032957818 0.00329788 0.006956686 -0.014305339
-0.006444389 -0.00656649 0.004225119 -0.018168803 0.014591315 0.0017873526 0.00368357 -0.005495351
-0.0045339298 0.029219983 -0.0056180893 0.009511594 -0.0041799205 -0.0072633033 -0.003308408 -0.004452645
0.005327008 -0.0039468883 -0.0039973957 -0.0066622435 -0.0049844943 -0.0033775219 -0.0061589894 0.02217058
-0.0039468193 0.0014585783 0.028623704 0.000563204 0.011137755 -0.009876558 0.011307783 -0.0032984288
0.010921709 -0.00334952 0.0072842203 -0.00094906037 0.006675717 0.011262527 0.005054842 0.027945906
0.00089198956 -0.003343183 -0.0059675677 -0.017634217 0.009761037 -0.006058309 0.014866436 0.007667048
-0.005513207 0.004083547 0.010311336 -0.0037458334 0.019493207 -0.011903059 0.014288638 -0.005183853
0.0022059062 0.0061630947 0.008951194 -0.00014349939 -0.0034756304 0.008145714 0.03042713 0.0048888996
-0.0014732972 0.0038892417 0.011760434 -0.00029161142 -0.007894691 -0.0035959412 0.00527198 -0.009182606
-0.0043811705 0.002685518 0.0019873988 -0.004195639 0.006145499 0.016883178 -0.000370344 0.0096089505
-0.010245819 0.0013768353 -0.010940135 0.044718947 0.006461118 0.004905484 0.012790237 -0.0012437188
0.014021653 -0.010829714 -0.0062417644 0.0014068891 -0.004208615 0.016261166 -0.0091124615 -0.003153289

net.1.running_mean f4 [128]
00000000: e93e 5ebe 2847 b6bd 8749 363e 1ab9 d4bc
00000010: 165c 633e c73b 343d 88db 19ba 10ff 963e
00000020: e43d 13bd 9489 e53d 4515 893e 4113 a1be
00000030: 2d34 443e 4c55 603e 4136 293e d592 e13c
00000040: feca 3fbe 3cfa 8f3e 5114 5fbe f41d 2e3d
00000050: 18bc 39bc beea 183e 14bf 95be 936a 09be
00000060: 7d6f f63d c5f2 0fbe f67e fd3c 98f1 18be
00000070: e1be 113e 0952 8e3e afc4 59be 7a10 febd
00000080: b980 57bc 2525 96be 921c 83be 7ae8 a13e
00000090: ede1 bc3d 3e47 3f3e 12b0 0bbe 10cb 463d
000000a0: 5598 6e3e e4b1 543d 6c8d 3dbe 97b2 ae3d
000000b0: fd2c 1c3e a95c 0ebe 2f1f b03b 10c6 9ebe
000000c0: beef 423e 46c6 5e3c 7153 91be a4be 8b3e
000000d0: c4e9 973e ce6c 7dbe c40b 52bd 40b9 693a
000000e0: f91d 9ebc e597 8c3e 29e2 f8bd 9b37 77be
000000f0: 092a 803d 6356 35be 6f70 1f3e 562f 793e
00000100: c5b9 073e 6acc a83e 2b6f 46be 85e7 09be
00000110: c2bd 953d f540 5dbe ca08 4c3e 82c5 5e3e
00000120: e78f 023e da8d 9e3e 8d54 ca3d 8c4c 7cbd
00000130: c7f8 4cbe 4728 2e3d 53b9 6d3e 2ec7 00be
00000140: 1943 99bd 4269 6d3e d402 81be be1f 523e
00000150: 1a18 013e 2eb2 3b3d cb65 613e 043e 26be
00000160: 6103 42be 5f39 92be d323 a93d 3a2b e3bc
00000170: f9dd 7a3d 3138 1f3d 469d 8c3e 2165 dabd
00000180: 8e42 62be aa6d 9a3e 929b d73b 9473 193e
00000190: 77f2 693d e07b 4ebc 9579 62be 320d 18be
000001a0: 141f 69be 8c21 c4bc 9f7a 6abe b20c 333e
000001b0: de80 08bc edb6 fa3c 7090 6fbe c61b 89be
000001c0: 6e17 853e 2923 26bd 8105 0d3e fd76 1b3e
000001d0: b8d1 8dbe 846e a5bc 1a6b 47bd 9e6e 4b3b
000001e0: a059 abbd ce20 ec3b 6c69 23be 5070 27bd
000001f0: 277a 5dbe b9b1 653e bbe1 283e b5ba 9dbe
-0.21703686 -0.08900291 0.17801486 -0.02596717 0.22203097 0.04400232 -0.00058691995 0.29491472
-0.035947695 0.112078816 0.2677404 -0.31460002 0.19160528 0.21907538 0.16524602 0.027535835
-0.18729779 0.281206 -0.21785094 0.042509034 -0.011336349 0.14933297 -0.29247344 -0.13419561
0.120329835 -0.14057453 0.030944329 -0.1493591 0.14232971 0.27796963 -0.21266435 -0.124054864
-0.0131532485 -0.29325214 -0.25607735 0.31622678 0.092227794 0.1867952 -0.13641384 0.0485335
0.23300298 0.051927462 -0.1851098 0.08530157 0.15251537 -0.13902535 0.005374811 -0.31010485
0.19036767 0.013597077 -0.28383973 0.27293885 0.29670537 -0.24748537 -0.05128075 0.0008915849
-0.019301401 0.27459636 -0.121525116 -0.24142306 0.062580176 -0.17708735 0.15570234 0.24334463
0.13254459 0.32968456 -0.19378345 -0.13467224 0.07311584 -0.2160681 0.19925228 0.21755031
0.12750207 0.309676 0.09879408 -0.06159644 -0.20016776 0.04251888 0.23215227 -0.12575981
-0.07483501 0.23184684 -0.2519747 0.20519921 0.1260685 0.045824222 0.22011487 -0.16234595
-0.18946601 -0.28559396 0.08258786 -0.027730573 0.061246846 0.038871948 0.2746374 -0.1066382
-0.22095701 0.30161792 0.0065798247 0.14985496 0.057115998 -0.012602776 -0.22116692 -0.14848784
-0.22765762 -0.023941778 -0.22898339 0.17485312 -0.008331506 0.030604804 -0.23394942 -0.26779002
0.25994438 -0.040560875 0.13771631 0.15182109 -0.27699065 -0.0201943 -0.048686124 0.0031041275
-0.08366704 0.007206059 -0.15958184 -0.040878594 -0.21628629 0.22431077 0.1649236 -0.3080651

net.1.running_var f4 [128]
00000000: b889 4a3e 8d61 f93e 02ef 633e 29ac d33e
00000010: 42eb 263e 45af bb3e 0247 7b3e 5a41 bf3e
00000020: cf08 c23e d0bb c23e 42e6 7f3e 0537 c43e
00000030: 4749 663e e918 373e ef73 e33e 0f37 863e
00000040: e473 bb3e e98d e73e 018a bc3e 3d78 a03e
00000050: 714d a63e b155 8d3e 41dd a43e 30ba d13e
00000060: f452 b23e 375b e63e 1e8e 853e 5ad5 b43e
00000070: 1efd 7e3e c777 c53e 1b7f c73e 0304 cd3e
00000080: a8a3 803e 02c1 2c3e 0a52 c23e a8ac 933e
00000090: 4418 933e d1ea 933e 92f6 fa3e ee73 ad3e
000000a0: decd 903e 92c9 8f3e 86c2 d63e f2da 6e3e
000000b0: f891 1b3e ffe8 d63e 75bf f33e 1b13 843e
000000c0: 66bd a83e 7a1a 8f3e b748 cb3e d516 d53e
000000d0: 5601 8b3e f381 493e cb36 973e 3770 893e
000000e0: 79df 083f e859 903e fcc9 dd3e d0d5 b83e
000000f0: 3ef0 6a3e 810e e03e a8e8 083f 54b4 963e
00000100: c728 8d3e e236 c23e 8c6b 853e 219c 033e
00000110: 0f0b 473e d4ef 223e 205b bd3e 57a1 513e
00000120: f623 853e 0560 bf3e 4a72 af3e 94d1 d33e
00000130: 4a3e ff3e da3c 993e 3de3 a93e 8be5 063f
00000140: d422 c63e 0bb4 923e 3309 853e 0e0f ae3e
00000150: 6554 8b3e ba15 763e 0147 333e 73cd 923e
00000160: e46e 943e 7d2d 9c3e ad59 a33e 3c26 993e
00000170: 0c19 853e c5a9 7a3e dfcc 9c3e 0628 763e
00000180: d8db 6e3e 3749 0c3f e12f 523e 0821 9a3e
00000190: a829 d43e d242 d23e c086 8c3e a9a9 ac3e
000001a0: d14c b03e 336e b73e 41c8 5c3e 1490 5f3e
000001b0: 7d72 413e 2d9e aa3e e1ce cb3e 862d ab3e
000001c0: 5ff9 ed3e 2e71 a53e d923 0f3f fcbd bd3e
000001d0: 8e95 853e dc3d ad3e cf22 8f3e 8343 b83e
000001e0: 8ce9 c13e 61d5 983e 6d42 973e a129 6a3e
000001f0: a18d 3e3e 816b e43e afe1 ad3e ea3b c73e
0.19779098 0.48707238 0.22259143 0.41342285 0.16300681 0.36657158 0.24538806 0.37354547
0.37897345 0.38033915 0.2499018 0.38323227 0.2248889 0.17880596 0.44424388 0.2621388
0.36611855 0.45225456 0.3682404 0.31341735 0.32480958 0.2760444 0.32200053 0.40962362
0.34828913 0.44991466 0.2608499 0.35319024 0.24901244 0.38567945 0.3896416 0.40042123
0.2512486 0.16870502 0.37953216 0.28842664 0.2872945 0.28890088 0.49016243 0.3387751
0.28282064 0.28083473 0.41945285 0.23325709 0.15192401 0.41974637 0.47607008 0.25795826
0.32957 0.27949888 0.39703915 0.41618982 0.27149457 0.19678478 0.2953399 0.26843426
0.5346599 0.28193593 0.43318164 0.36100626 0.22943208 0.43761066 0.53480005 0.29434454
0.27570173 0.37932497 0.26058614 0.12852527 0.19437812 0.159118 0.36983585 0.20471703
0.26004 0.37377945 0.34266883 0.41370833 0.4985221 0.2992924 0.33181182 0.52694005
0.38698447 0.28652987 0.2598358 0.3399586 0.27212825 0.24031726 0.17507555 0.2867237
0.28990853 0.30503455 0.31904355 0.29911983 0.25995672 0.24478824 0.30625054 0.24038705
0.23326051 0.54799217 0.20526077 0.30103326 0.4143803 0.41066605 0.27446556 0.3372319
0.34433606 0.35826263 0.21560766 0.21832305 0.1889133 0.33323804 0.39806274 0.3343317
0.46479318 0.32312912 0.55914074 0.3705901 0.26090664 0.33836257 0.27956244 0.35989007
0.37873495 0.29850295 0.29542866 0.22867443 0.18608715 0.4461327 0.33961245 0.38912898

net.3.weight f4 [64, 128]
00000000: c717 943b 0bdf 713d 7d67 aa3d 06ec 2f3d
00000010: 3c0e 6dbd 06ef 20bd 3053 3d3d 5d1a b4bd
00000020: 9ee2 1c3d 9892 85bd c83f 113d dd07 88bd
00000030: 6c03 02bd d430 fb3b f52c 093d b187 9bbd
00000040: 7de7 bb3d a238 d2bc f2cd a53d 86e3 14bd
00000050: 5a7d 3e3d f8b1 44bd fc27 e13c 8b54 40bd
00000060: 4b0d 30bd adc1 df3b 2f96 9cbd 4d2e 2abd
00000070: f2f3 a5bd 034a 723b 0abd 8cbd fb85 353d
00000080: 3268 693c 31d7 88bd 9947 633d f54b 643d
00000090: 76d7 203d 2d7f 793d b535 943d 88ad aabd
000000a0: 9571 8fbd a722 bdbd 8864 063d 02e0 3c3d
000000b0: 3d07 2d3d dcad df3c 1531 d0bc e55b 8f3d
000000c0: b68b 7e3c 9b45 a8ba ab67 9d3b bd7f d73a
000000d0: 9147 e43c 9b37 86bd caa0 a4bc 5a26 4b3d
000000e0: e3ff 413d 3c87 143d bc8a 193d 961e cebd
000000f0: 7b3e c5ba 59d2 8f3d 4f5c c63d 6c97 41bd
00000100: 24ff aabd 2742 a13d c092 943d 197e 8c3d
00000110: 4709 503d f665 443d 4f92 ab3d d886 a5bd
00000120: 4437 b3bd 53e3 9dbc 0cad 843d b753 dbbc
00000130: 046f 1cbd a3bd d8bb 2dc5 9ebc c7b0 92bd
00000140: 0c59 38bd da94 b6bc fd22 803a c428 b03d
00000150: 890a c43c fca2 4c3d 4784 9dbd 11ea 46bd
00000160: 83ef 5cbd 541e a33c 2df1 8ebd 3eaf 0abd
00000170: bfab aa3d e878 af3d 21de a63d 55a6 663c
00000180: 5ff7 683d 1213 1d3d 949c 0dbd 658c 913d
00000190: ecf7 413d 6125 92bd e29b 993d a024 97bb
000001a0: 5841 87bc 7756 8ebd b337 223d 940c 10bd
000001b0: b9bc c6bc 64cf 96bd f0ef 18bb 9ea5 9cbc
000001c0: 4b82 8f3d ddeb 1a3d f011 96bd ed70 a2bd
000001d0: 8f3c 6dbd 079b b4bd b5a6 633d c236 c13c
000001e0: aa17 58bc 7a5a 123b e395 493d b993 01bd
000001f0: 3aa6 3fbb fb43 503d 6218 213d 2fd8 c03c
00000200: daf0 4fbd 92ed 293c 4383 8abc 37a0 533b
00000210: 0b07 6fbd db0b 7b3d 1eb7 03bd e9c2 f43c
00000220: 72f0 80bc 1dd6 24bc 2fc2 5e3d 04d8 103d
00000230: f23f 973c 056e 503d 5022 1cbd faad b53d
00000240: acaa aabc 82bd 893d e9f6 6f3d 1353 9fbd
00000250: c527 52bd 5730 10bd 8f51 ac3d bf4d 783c
00000260: 699d 833c 5d6a 01bd 958e 2b3d 43e8 1bbd
00000270: 83c1 313d 9813 7bbd b699 9abc 0c7b 4abd
00000280: 8417 a1bc 43ed 043d e417 9b3d 418d abbb
00000290: a5b9 07bd 9da2 60bd b8ab 81bc 12e8 983d
000002a0: 3491 1fbd 278d e23c dca9 2ebc 341c 213c
000002b0: 97c1 863d fbd1 313d ec6b 6dbd b5bd 0f3d
000002c0: 96c9 d6bc d77a 793d a675 85bd 9638 a7bc
000002d0: 69ad 21bd 0d10 83bc 6684 023d 990e ae3d
000002e0: 60ed 1f3c a17f 90bd bc68 3ebd 329e 4abd
000002f0: 3a99 a83c 20dc 4ebd 3cd6 893d dc5f d83c
00000300: 211d 473d a517 413d 2ff5 9b3c cc00 623c
00000310: c0f0 0dbd b979 3cbd d107 bd3c 4775 5cbd
00000320: 6db0 89bd 1425 ff3c ec9a 98bd 3d06 89bd
00000330: deba 6b3c 07b3 c7bc d62d 2d3b 467d e03c
00000340: cc27 4e3d 8adc a4bc b074 a93d 214c 2ebc
00000350: c5c2 75bd 5ef1 523d ad8c 243c d25f 97bd
00000360: 19d7 83bd eeca 84bc 9c1c a0bd 3010 aa3d
00000370: b0b6 83bd 2750 b03d 1945 ae3b dc31 12bd
00000380: f13c 893d 13c4 903d 87b2 1fbd eea9 083d
00000390: 7835 06bc 0801 8f3c 577f a53d 4ff5 58bc
000003a0: 5b86 873d dd43 98bd 3484 ff3c 5c34 fc3c
000003b0: 4125 733d 6abd 7c3d ecea 7c3d f87d cb3b
000003c0: ba8a d7bc 176b c03b 1258 1dbd fa88 4f3c
000003d0: 9306 a4bd 55d9 543d e879 92bd b8bd a93d
000003e0: 8cce 8abc eb79 34bc 0608 54bd d365 38bd
000003f0: 5919 efbc 3ed3 323c c33c 123d 3abb 98bc
0.004519436 0.0590506 0.0832052 0.0429497 -0.057874903 -0.03929045 0.046221912 -0.08794091
0.038302056 -0.06522101 0.035461217 -0.06642125 -0.031741545 0.007665733 0.03349014 -0.075942405
0.09175012 -0.02566177 0.080959216 -0.036349796 0.046506263 -0.048021287 0.027484886 -0.046955626
-0.042981427 0.006828508 -0.07645833 -0.041548062 -0.081031695 0.0036970384 -0.06871994 0.044317227
0.0142460335 -0.066816695 0.055488203 0.0557365 0.03926798 0.0609123 0.07236806 -0.0833388
-0.07004086 -0.09235125 0.032810718 0.046112068 0.04224323 0.027304582 -0.02541403 0.06999949
0.015536239 -0.0012838127 0.004803618 0.0016441267 0.027866157 -0.06553575 -0.020096201 0.04959712
0.047363173 0.036261782 0.037485823 -0.100644276 -0.0015048528 0.070225425 0.09685575 -0.047263548
-0.083494455 0.07873946 0.07254553 0.06859989 0.050790098 0.0479488 0.083775155 -0.0808236
-0.087507755 -0.019273436 0.064783186 -0.026773317 -0.03819181 -0.0066144033 -0.01938113 -0.07162624
-0.045006797 -0.022287775 0.0009776052 0.086015254 0.023930805 0.04996012 -0.076912455 -0.048563067
-0.053939354 0.019911923 -0.069795944 -0.03385853 0.08333539 0.08567983 0.081478365 0.014077743
0.056876536 0.038348265 -0.034573153 0.07106856 0.047355577 -0.07136036 0.075004354 -0.0046125203
-0.01651065 -0.069500856 0.0396039 -0.035168245 -0.024259912 -0.07363775 -0.0023336373 -0.019121941
0.07007273 0.037822593 -0.0732764 -0.07931695 -0.05791908 -0.088186316 0.055578906 0.02358568
-0.013189236 0.002233176 0.04921521 -0.03163502 -0.0029243366 0.05084608 0.039329894 0.023540584
-0.050766803 0.010371583 -0.016908294 0.003229154 -0.058356326 0.061290603 -0.032157056 0.029878097
-0.015739653 -0.010060814 0.054384407 0.03536226 0.018463109 0.050886173 -0.03811866 0.08871074
-0.020833336 0.06725599 0.05858508 -0.07779517 -0.05130746 -0.03520235 0.084139936 0.015155255
0.01606627 -0.031595577 0.041884024 -0.0380633 0.043397438 -0.061297983 -0.018872123 -0.049433753
-0.019664533 0.032452833 0.07572916 -0.0052353446 -0.03313603 -0.05484258 -0.015828952 0.07466139
-0.038956836 0.027655197 -0.010660615 0.009833384 0.06579893 0.043413144 -0.05796425 0.035093028
-0.02621917 0.060908165 -0.0651658 -0.020412724 -0.039472017 -0.015998865 0.031864546 0.08498878
0.009761184 -0.07055593 -0.0464866 -0.049467273 0.020580877 -0.050502896 0.06730315 0.026412897
0.048611764 0.04714169 0.019037811 0.013794135 -0.034653425 -0.04601452 0.023075016 -0.053822782
-0.06723104 0.03114561 -0.07451424 -0.06690643 0.014387814 -0.02437736 0.0026425025 0.027403485
0.050330922 -0.020124692 0.082742095 -0.010638268 -0.0600002 0.051499717 0.010043305 -0.07391323
-0.06437511 -0.016210046 -0.07817957 0.08303869 -0.06431329 0.08609038 0.0053182957 -0.03569208
0.06701077 0.07068648 -0.038988616 0.033365183 -0.008191459 0.017456546 0.08080929 -0.01324208
0.06617423 -0.07434819 0.031190969 0.030786686 0.0593617 0.061704077 0.061747476 0.006210085
-0.026311267 0.005872141 -0.03841407 0.012666935 -0.080090664 0.051965076 -0.07152158 0.08288139
-0.016944192 -0.011015396 -0.051765464 -0.045018982 -0.029186891 0.010914622 0.03570248 -0.018643964

net.3.bias f4 [64]
00000000: d15d 923d a1af 063d 4556 b83c 3b78 9bbd
00000010: 07c5 8f3d a5fe ae3d e6ea 253d 6c7e 283c
00000020: 6d91 bb3c 282f 11bd 6f0e a0bd 9887 b5bc
00000030: 4808 e339 f1e9 a7bd 2500 97bd 307b 84bd
00000040: 1c05 bf3c 166c 57bd 100d eb3c 188b 913d
00000050: 1d2d 9f3d 3506 1e3c 6815 d6bc 905c e8bc
00000060: ea70 71bd 5743 e63c 6741 61bd 7dff 693d
00000070: 8a87 563d 14aa 27bd 918d 61bc dfeb 953d
00000080: c0a8 503d 2c8e ea3c 1521 6d3d 9575 edbb
00000090: ff19 2f3d 4327 5c3d b0c2 a4bc 0a8a 0c3d
000000a0: a31d 313d bea6 9ebd bd19 4abd 4e69 803c
000000b0: 1556 0fbd aeb6 0b3d 99a0 83bd e410 b5bc
000000c0: db0b 733d 4eea 8ebb 446e 343d 44ca 213d
000000d0: 52eb c0bc 5aa9 b6bc f631 84bd 68dd 17bd
000000e0: e857 7b3c b672 8b3d 5321 e43c 88bd 7ebd
000000f0: 35b9 54bc 0204 723c b96d 6f3d 5ba0 b7bc
0.071468 0.032882337 0.022502074 -0.075912915 0.07020002 0.08544663 0.04050722 0.010284048
0.022896493 -0.035445362 -0.07815253 -0.022159383 0.00043302984 -0.08198918 -0.073730744 -0.06468809
0.023317866 -0.052593313 0.028692752 0.07106608 0.077722766 0.009645035 -0.026133254 -0.02836445
-0.058945574 0.028108282 -0.054994013 0.05712842 0.052375354 -0.040933684 -0.013766662 0.073203795
0.050942183 0.028632246 0.057892878 -0.007246683 0.0427494 0.05374838 -0.020112365 0.03431133
0.043241154 -0.07746647 -0.049340952 0.015675213 -0.034994204 0.034109764 -0.06427116 -0.02210278
0.059337478 -0.0043614274 0.04405047 0.039499536 -0.02354971 -0.02229755 -0.06454842 -0.037076384
0.015340783 0.06808989 0.027847921 -0.06219247 -0.01298361 0.014771463 0.05845425 -0.02241533

net.4.weight f4 [64]
00000000: d2b5 803f 6ccb 7e3f 3c75 7e3f 011e 843f
00000010: 1e27 773f a422 843f 873d 793f 4f6b 7c3f
00000020: f5c8 7d3f 52bc 7e3f 9ccf 7a3f 2f81 803f
00000030: 0185 7b3f c484 7d3f 0846 813f 8df4 7a3f
00000040: 59ee 783f b731 7d3f 73a8 823f 294b 7e3f
00000050: 15fc 7d3f 061c 7e3f a185 833f e780 7b3f
00000060: cda9 813f 4c72 783f ed8e 803f 322f 823f
00000070: 8c29 813f b1f5 823f 346c 803f df8a 7d3f
00000080: a86d 7c3f 7877 813f 7bc3 813f 3479 7c3f
00000090: e980 813f 163c 7d3f edc2 7e3f 7218 803f
000000a0: c562 803f 3e8f 7e3f 77e3 833f 4aa2 7d3f
000000b0: 837b 7f3f 2688 783f 2b9e 843f 5921 833f
000000c0: 91b6 803f c27e 803f 5842 823f d82b 823f
000000d0: c56f 833f 0ea0 813f ff5e 7f3f 7152 7e3f
000000e0: e8d0 853f ab5c 833f 0607 7d3f 908a 803f
000000f0: 901e 883f 60ac 7f3f d73b 7a3f 1abf 7e3f
1.0055487 0.9952915 0.99397635 1.0321656 0.96544063 1.0323071 0.9735951 0.9860124
0.9913476 0.99506104 0.97973037 1.0039424 0.9824982 0.9903071 1.0099497 0.98029405
0.9723869 0.98903984 1.0207657 0.99333435 0.9921277 0.9926151 1.0275155 0.98243564
1.0129944 0.97049403 1.0043617 1.0170653 1.0090804 1.0231229 1.0033021 0.99040025
0.9860482 1.0114584 1.0137781 0.9862244 1.0117465 0.9891981 0.99516183 1.000746
1.0030142 0.9943732 1.0303792 0.9907576 0.9979784 0.97082746 1.0360769 1.0244552
1.0055715 1.0038683 1.0176497 1.016963 1.0268484 1.012697 0.9975433 0.99344546
1.0454378 1.0262655 0.9883884 1.0042286 1.0634327 0.998724 0.9774756 0.9951035

net.4.bias f4 [64]
00000000: 82de 673c 8c20 23bc 98d1 6bbb 833e c53c
00000010: 927f babc fa0d fe3c 01e1 0abb eb85 87bc
00000020: fc24 a5bc d613 a93a be49 683b e39e 443c
00000030: 2249 1b3b 58e3 b03b 0bc2 8d3b 16a6 3abc
00000040: f654 62bc 623a edbb 033a ff3c 9880 313b
00000050: 5230 ab3b 6abc 7bbb 7287 0d3d 0b03 fabb
00000060: d998 0c3c aa1a 8bbc ae1d b63b c36a ce3c
00000070: db56 973c 1dca 0e3d f9e5 013c 09a1 663b
00000080: b7c1 6cbc 87ba 953b 4556 6e3c 302e 3abb
00000090: 58c0 223c 5822 f539 c5a5 6abb 6719 8f3b
000000a0: 0a7e c9bb 277a fd3a 5297 0b3d 2795 aeba
000000b0: 01cd 1fbc c261 cdbc 524a 3f3d d69e 1a3c
000000c0: d8aa 203c 962d c2ba e2bc f23c 1475 d33c
000000d0: adf1 873c b327 093c 3e70 293b 849f 68bc
000000e0: bcdb 453d 53b3 153d 2516 3ebc aa01 e63a
000000f0: e892 323d 55fc 093c 356f a3bc 1722 4b3b
0.014152171 -0.00995649 -0.0035983082 0.02407766 -0.022765908 0.031012524 -0.0021191242 -0.01654335
-0.020159237 0.0012899588 0.0035444344 0.012000772 0.0023694714 0.0053981952 0.0043261102 -0.011392137
-0.013814202 -0.007239626 0.031155592 0.0027084704 0.005224266 -0.0038411864 0.034553 -0.0076297573
0.008581364 -0.016980488 0.0055577373 0.025197392 0.018474033 0.03486072 0.007928365 0.00351912
-0.014450482 0.004569355 0.014546935 -0.0028408878 0.009933554 0.0004675563 -0.0035804373 0.004367042
-0.006149058 0.0019338772 0.034079857 -0.0013319597 -0.009753467 -0.025071029 0.046701737 0.0094372835
0.009806357 -0.0014814611 0.029631082 0.025812663 0.016594732 0.008371281 0.0025854255 -0.014198188
0.04830526 0.03654797 -0.011601959 0.0017548103 0.043597132 0.008421977 -0.019950489 0.003099566

net.4.running_mean f4 [64]
00000000: 9b93 063e 02f4 c23d 4a03 79bd c2ea 07bd
00000010: bde5 eb3d 3506 8fbe 5c2f 463d 4649 9a3d
00000020: 90d0 a4bd 9e17 8dba 708d c2be 187f 24be
00000030: 149c a2bd 9555 8fbe 3ef0 b0be 827b d6bc
00000040: 729e dfbd af5a fbbd 8296 a3be fe1a 9dbd
00000050: 89bc a83d 01c3 d93d 9ff1 6cbe 28f7 27bd
00000060: 7371 e2bb f9a8 ff3d bc14 67bd df7f 943c
00000070: 159c 3dbe 2337 58be 83e0 c03d d555 883c
00000080: b5fb 2fbd 4419 1cbd d39d 713e 1225 e93c
00000090: 0493 d63c fa88 9fbd 7ad6 e93d b72c d8be
000000a0: 9e6a fabe 7183 2cbe f6b2 1dbc 6814 59be
000000b0: 3829 bd3d f36f 243e a41a d8bc 28a7 613e
000000c0: 8a7b 0d3e 4c17 86be 1b66 343e 1971 a53d
000000d0: d05f a03e 2a99 99bd 90cd abbd 9ad4 603c
000000e0: fb53 e03d d873 f43d 8cb7 47be 76f5 ce3d
000000f0: 931e 583e 9869 47bd 4920 80be 2f2d cdbc
0.13142245 0.09519197 -0.060794152 -0.033182867 0.115184285 -0.27934423 0.04838501 0.07533507
-0.08047593 -0.0010764485 -0.37998533 -0.16064107 -0.07939926 -0.2799498 -0.3455829 -0.02618194
-0.10918893 -0.12273156 -0.31950766 -0.07671164 0.08239085 0.10632897 -0.23139046 -0.04100719
-0.006910497 0.12483401 -0.05641626 0.01812738 -0.18516572 -0.21114783 0.09417822 0.01664249
-0.042964656 -0.038110033 0.23595361 0.02846006 0.02619315 -0.07789798 0.11417861 -0.42221615
-0.48909467 -0.16847016 -0.009625187 -0.2119919 0.092363775 0.1605833 -0.02637989 0.22036421
0.13816658 -0.2618965 0.17617075 0.08078212 0.313231 -0.07499917 -0.08388817 0.013722563
0.10953518 0.11936158 -0.19503611 0.10105412 0.21105413 -0.048684686 -0.25024632 -0.02504596

net.4.running_var f4 [64]
00000000: 452a 843e a8d8 553e c7ae 7e3e ca8e 973e
00000010: ea9e 493e 70ad 9d3e 381c 063e 1879 793e
00000020: 4064 343e 3977 043e 029f 6c3e d045 9a3e
00000030: 501c 8f3e 3b38 9d3e 0a18 803e 53ed 823e
00000040: 413a 193e c1cf 7d3e 3dee de3d 2087 143e
00000050: bc55 433e 97d2 593e a4c0 9c3e 7766 4f3e
00000060: 710b 163e cd85 383e da5d b13e 6f64 493e
00000070: 5fbd 9e3e 05a1 383e 4814 6b3e 8be0 d33e
00000080: c70c 943e 504c 483e 70d3 073e 39c6 8b3e
00000090: 940c a33e c4ac 8b3e 07ee 573e e2de 2f3e
000000a0: fbd6 863e c3a5 823e 6228 633e a284 813e
000000b0: 8357 223e 4b45 843e c77f 933e 98b4 6a3e
000000c0: 65e7 b63e faad 853e 05b4 663e 6a70 613e
000000d0: 40ae 323e d5cd a83e bc2d c63e 9140 ef3e
000000e0: 2364 783e ebbe 4c3e 0d0b 523e 0431 1e3e
000000f0: dfcc 693e 6e26 763e 1fda 543e 606b 913e
0.258135 0.20883429 0.2487136 0.29601127 0.19689527 0.30796385 0.13096702 0.243626
0.17616367 0.12936105 0.23107532 0.30131388 0.27951288 0.30706963 0.2501834 0.2557169
0.14963628 0.24786283 0.10885284 0.14504671 0.19075674 0.2127174 0.30615723 0.20253931
0.14652802 0.18019791 0.34641916 0.19667219 0.31003854 0.18030174 0.22956955 0.4138225
0.28915998 0.19560361 0.13264251 0.2729967 0.31845534 0.27280247 0.21086894 0.17174867
0.26335892 0.2551709 0.22183374 0.25296503 0.15853696 0.25834116 0.28808424 0.22920454
0.35723415 0.26109296 0.2252961 0.22015539 0.17449284 0.32969537 0.38706768 0.46728948
0.24256949 0.19994704 0.20512028 0.15448385 0.22832058 0.24038097 0.20786332 0.28402233

net.6.weight f4 [32, 64]
00000000: ba57 89bd 2d78 8abd 98dc 323d 7dac b3bb
00000010: f9cf 893d 1a27 9b3b 9d8e d4bd 83d0 00be
00000020: 27b4 e53d 2168 613c b344 a43d 918f e6bd
00000030: 50a8 16be 8425 9f3d 5878 4f3d 1b7f 4e3d
00000040: 9ce3 033e 12c6 1f3d 93f8 ce3d 7a9c f0bd
00000050: 69c4 a6bd b218 8fbd c135 a73d 0efb 90bd
00000060: 9640 e93c 08d9 0cba c6ad dcbd cb2f 443d
00000070: 32e7 76bd ffd8 573d b49f 8dbc 77cb 86bd
00000080: e924 50bd 2081 fd3d 1679 c8bd 1157 6abd
00000090: fd62 a2bc d098 f8bc ca45 953c db17 a83d
000000a0: 65fa d13d ae93 233d 1db3 e7bd 4a82 4e3b
000000b0: b623 7dbd de8d ba3d 8877 cc3d a000 79bd
000000c0: aded 98bc b714 d13c 93f6 68bd d19a babd
000000d0: c68c aa3d da36 8b3d cad7 31bc 9127 68bd
000000e0: 51fb c23d 3a94 b43d 4fcd 873d 70fa a23d
000000f0: 991b ed3d 89d2 c53d 1f24 90bc fac2 703d
00000100: d53e b7bd 02b6 eebd 890b 67bc d1f3 e8bd
00000110: da7a 99bd 1b3c c0bd 56bc 99bd 60ad 50bd
00000120: c027 81bd b738 cabd 2c59 3f3d fb7b c83d
00000130: 6e91 4ebc 6a42 0bbd c806 b9bd b03d 28bd
00000140: e6ee de3d 15bc ca3c 7552 a1bc 03d9 b43d
00000150: a729 12bd 9993 a63c 736a ae3d 5027 bebd
00000160: dbe8 b0bd b071 b23d a6fe 133d 709c a13d
00000170: 00a0 b13d ee10 54bd 5313 04be ddaf 5dbd
00000180: d3f1 933d 36e1 ddbd 7c98 063d f67e 2ebd
00000190: 5de0 f3bc becc 5ebd 7cb3 8f3d a2bd cb3c
000001a0: 96c2 6d3d 0d42 94bd fbbb 563d 5906 f63a
000001b0: 1224 d4bd 15c7 00bd 8832 5ebd 2ee9 db3c
000001c0: f151 903d e8d6 35bd 36af 333c f5cf 853d
000001d0: 0f7e f6bd a897 cc3d 6add 12bd 40d0 dcbd
000001e0: ae64 bbbd 06c9 953d 9ec8 ef3d 852e 99bd
000001f0: 8118 98bd 4d7e a0bd 9dc2 cd3c fb7a a6ba
00000200: b0ac 773d 5a67 1d3d 5bb7 803d 34aa b03d
00000210: 2fab 93bd a5ef 3fbd 04fb cfbd 6cd2 da3d
00000220: 4701 fc3d 3bf1 823d 886c e0bc 0315 cbbd
00000230: 7de1 c83d 9dbf fbbd 4025 abbd f79a ccbc
00000240: 39f8 743c 3425 c5bd 4816 17be 72ed c6bd
00000250: f80d a5bc 1622 f6bc 9ccf 03be dd9d c5bd
00000260: 55c6 943d be60 efbc e6eb 563d 995c e73c
00000270: f228 7b3d 92fd 083c ab76 c83b cc08 b4bd
00000280: a955 b43c bbce cfbd ae7d 833d 6637 db3d
00000290: bebc bcbd 8c52 e43d dddc d1bb e0f4 92bc
000002a0: d703 e03c adc5 0cbd 3326 91bc 0dc0 28bd
000002b0: 0b80 14be c919 813c 9c31 dd3d b3c1 f93c
000002c0: 5a8b b93c 2e4c 743c 49d7 bdbc ac21 ef3d
000002d0: 223c a23d 0e89 f5bd ff40 74bd b678 0cbd
000002e0: 184c 3c3d 8cc4 453c bb8a b13d 1ed4 c03c
000002f0: a17b ab3c ecfd e33c 07cb 803d f5ef ae3d
00000300: 2c65 e43d f08f 0c3d fc4e 5d3d 8e23 903c
00000310: 8416 8a3d 98ac ae3d b567 58bd c559 2cbd
00000320: 6f58 d03d 1b7e f23c 9d39 5dbc 0987 6c3d
00000330: 0173 2e3d 94c6 323d 474a 04be b2b1 5f3c
00000340: 08f8 f23d 3ace db3d 46db 203d 2eb1 cd3b
00000350: 4530 633d a48c bebd 82a2 ba3d 515c c53b
00000360: f5b5 cf3d d874 b0bd 7a27 32bd a628 05bc
00000370: 8e87 c8bc c849 f83c 3e32 ec3d 1b66 073d
00000380: 4e24 eb3d af3f acbd a91a 6dbd a52e 3abd
00000390: 535e ab3d 06a4 2dbb b5e1 c63d 3dcf 503d
000003a0: 8f3b f9bd 8971 973d 7272 f83d 3e6c 0c3d
000003b0: 44bb c2bd ff49 833d 9f8e 003d 450e 223b
000003c0: a5dc 0a3c ad5a 26bd 0770 4fbd d6bb ebbd
000003d0: 6fa8 dabc 3b38 98bd 1311 a03d 0206 2f3d
000003e0: e8f0 133d 66eb c1bd 721a 623b a060 98bb
000003f0: 7fd9 77bc 5634 abbd 428a ddbc 6d34 c23a
-0.06706186 -0.06761203 0.043667406 -0.0054832087 0.06729121 0.004734886 -0.10378764 -0.12579541
0.11216002 0.013757736 0.08020916 -0.11257852 -0.14712644 0.077708274 0.050651878 0.050414186
0.12879795 0.039007254 0.101060055 -0.117485955 -0.08142931 -0.06987132 0.081645496 -0.07079135
0.02847318 -0.00053729163 -0.10775332 0.04789714 -0.06027908 0.052697178 -0.017288066 -0.065817766
-0.05081645 0.12378144 -0.0978872 -0.05721194 -0.019822592 -0.030346304 0.018221755 0.08207675
0.10252837 0.03993576 -0.1131346 0.0031510764 -0.061801635 0.0910909 0.09983736 -0.06079161
-0.01866802 0.025522573 -0.056875776 -0.0911156 0.08327632 0.067975715 -0.010854671 -0.05667836
0.09520591 0.088173345 0.066309564 0.079579234 0.115775295 0.09659297 -0.017595349 0.058779694
-0.08947531 -0.11655809 -0.014101871 -0.11374629 -0.07494135 -0.09386464 -0.07506625 -0.050946593
-0.0630641 -0.09874099 0.0467159 0.097892724 -0.012607915 -0.033998884 -0.090344965 -0.041074455
0.1088541 0.024747888 -0.019692639 0.08830454 -0.035684254 0.020334052 0.08516397 -0.09284842
-0.08638164 0.087130904 0.036131524 0.07891166 0.08673096 -0.051773958 -0.12897997 -0.054122794
0.07223859 -0.10833971 0.032860264 -0.042601548 -0.02977007 -0.054394476 0.07016656 0.024870697
0.0580469 -0.07239161 0.052425366 0.0018770202 -0.10358442 -0.03143986 -0.05424741 0.026844587
0.07046879 -0.044394404 0.0109670665 0.06533805 -0.120357625 0.09989864 -0.03585569 -0.10781908
-0.091500625 0.07313733 0.117081866 -0.07479576 -0.07426549 -0.0783659 0.025117213 -0.0012701446
0.060467422 0.03842864 0.06284972 0.08626214 -0.07210385 -0.046859402 -0.10155299 0.10684666
0.12304931 0.06393667 -0.027395502 -0.09916117 0.098086335 -0.12292407 -0.08356714 -0.024976237
0.014951759 -0.096262366 -0.14754593 -0.09713258 -0.020148262 -0.03004555 -0.12872165 -0.09649251
0.07264391 -0.029220935 0.052471064 0.028242396 0.061318345 0.008361237 0.006117662 -0.0879074
0.022013502 -0.101468526 0.06420456 0.10703926 -0.09215687 0.11148557 -0.006404503 -0.017939031
0.027345581 -0.034368206 -0.01771841 -0.04119878 -0.1450197 0.015759366 0.10800478 0.03048787
0.022649456 0.014910741 -0.023173945 0.11676344 0.07921626 -0.11989032 -0.059632298 -0.034294806
0.045971006 0.012070786 0.08669039 0.023538645 0.020932974 0.02783104 0.062887244 0.08541862
0.111521095 0.034316957 0.054030403 0.017595079 0.06742576 0.085290134 -0.052833278 -0.0420778
0.10173117 0.029601147 -0.013502506 0.057745967 0.042590145 0.04364641 -0.1291896 0.013653206
0.118637145 0.10732694 0.039271615 0.006277225 0.055465955 -0.09304169 0.09113027 0.006022968
0.101421274 -0.08616036 -0.04349468 -0.008127367 -0.0244787 0.03030862 0.115330204 0.03305636
0.11481534 -0.08410584 -0.057886753 -0.04545464 0.083676 -0.002649547 0.09711019 0.050978888
-0.12169563 0.07394702 0.12131204 0.034282915 -0.09508374 0.06410598 0.031386014 0.0024727744
0.008475457 -0.04061382 -0.050643947 -0.11510436 -0.026691644 -0.074326 0.07815757 0.04273034
0.036118418 -0.09468727 0.0034500626 -0.0046501905 -0.015127539 -0.08359592 -0.027043466 0.001481665

net.6.bias f4 [32]
00000000: 3c2e bb3d afdf 0cbd 6636 913b cb62 c23d
00000010: 95c9 e7bd 29d7 56bd 59f4 fc3d 3bb3 b83b
00000020: 2ff7 84bd 76f5 17bd 8609 233d ec50 bfbd
00000030: 4cad aebd a84a af3d f466 efbc 96cf 8a3d
00000040: 4ba7 b2bd ba57 023b 7abf 2dbd 899f 0b3d
00000050: ee6e 953d a52c e0bc 4a47 0b3d a163 033d
00000060: bb33 22bd c863 353d 91cd b5bd 7902 21bb
00000070: 625d b53b 7acc cbbd 3dee d13d fab3 483d
0.09139678 -0.03439301 0.0044315336 0.094914995 -0.113177456 -0.052451286 0.12351293 0.0056366003
-0.06492459 -0.037099324 0.039804004 -0.093416065 -0.085291475 0.085591614 -0.029223897 0.06777875
-0.08723315 0.0019888715 -0.042418934 0.03408769 0.07296549 -0.027365038 0.034003533 0.032077435
-0.039600115 0.044284612 -0.08877099 -0.0024568124 0.0055348137 -0.0995111 0.102505185 0.048999764

net.7.weight f4 [32]
00000000: 4348 7b3f 1006 783f 29a2 733f db11 7e3f
00000010: 124e 763f 0ef2 793f a694 773f 8c68 803f
00000020: c9f5 793f c08f 763f 3f68 7e3f 66e7 743f
00000030: a066 793f 462d 7d3f b58c 7e3f ef7a 7e3f
00000040: 4395 7b3f 8a2f 773f 4e1e 803f 2282 7e3f
00000050: 3a05 7a3f 0658 753f 3f5a 783f 274d 7d3f
00000060: ec2e 7f3f e40c 773f fdfc 7a3f 0236 763f
00000070: d5a9 793f 0ca8 793f eb7c 7f3f 04d4 7e3f
0.9815714 0.9688425 0.9516931 0.99245995 0.96212876 0.9763497 0.96711195 1.0031905
0.97640663 0.96313095 0.99377817 0.95665586 0.9742222 0.98897207 0.9943345 0.9940633
0.9827463 0.96556914 1.0009248 0.99417317 0.97664225 0.9583744 0.97012705 0.9894585
0.9968097 0.96504045 0.9804228 0.9617616 0.9752477 0.97522044 0.99799985 0.9954226

net.7.bias f4 [32]
00000000: 54cb 74bc 1604 2e3c b97b 9bbc a1f2 183c
00000010: 4b96 44bc a56d a1bc 1375 84bc 8dc2 933c
00000020: d5fe 84bc d8fa 9ebc bddb 763c 1ced cdbc
00000030: 174f 98bc 614c f4bb c2db 22bc 94ca 3d3c
00000040: 13c8 233c ab28 6cbc 6fb0 4f3c 7cbf 823c
00000050: 470f 3d3c 2295 8fbc a639 7fbc a2c8 6a3c
00000060: 91c0 593c bce7 20bc 78f3 b4bc 8cc7 a2bc
00000070: 1461 3ebc 2bbe c63b b2b9 913c 4705 703c
-0.014941055 0.010621091 -0.018979894 0.009335191 -0.011998723 -0.019705603 -0.016169107 0.018037105
-0.016234795 -0.019406721 0.015067038 -0.025137477 -0.0185924 -0.007455394 -0.00994009 0.011583943
0.009996432 -0.014413993 0.012676342 0.015960447 0.011539287 -0.017527167 -0.015577709 0.014330061
0.01329054 -0.009820875 -0.022088751 -0.019870542 -0.011619825 0.0060651503 0.017788742 0.014649696

net.7.running_mean f4 [32]
00000000: 45c6 5e3e d2f1 b9be a6ed 4bbb 1082 af3e
00000010: d2b0 7c3c de99 c33e 7c87 d53e 00c4 d4bd
00000020: 6295 4d3e 42f5 39bd 4616 de3c 4ef3 dabe
00000030: 511e 87be 12c2 d6bd c126 933c 90ba ccbc
00000040: 4924 26bd 3a69 0c3d e503 76be 66e0 343e
00000050: 0606 363e 66fe 02be 3883 033e 6afc 153e
00000060: 3ce9 79bd 31e2 823d 8ec2 423e 9768 f33d
00000070: 746f 833e 8a43 ca3d 380c aabe 6446 8f3e
0.21755321 -0.36317307 -0.0031116991 0.34278917 0.015423017 0.3820333 0.4170493 -0.103889465
0.20076516 -0.04539991 0.02711023 -0.42763752 -0.26390317 -0.10486235 0.017962815 -0.024991304
-0.040561948 0.03428004 -0.24024923 0.17663726 0.17775735 -0.12792358 0.12843025 0.1464707
-0.061013445 0.06390799 0.19019529 0.11885183 0.2567097 0.09876163 -0.33212447 0.2798339

net.7.running_var f4 [32]
00000000: dc0d 0e3e 100b fd3e dfb5 d53e f24f b73e
00000010: d444 8b3e 275a 9e3e 1b2e 973e 471b 5a3e
00000020: 5a1e a43e c52b d43e d55a f93e a506 d13e
00000030: 95d4 6a3e 98c7 173e 53e0 833e 649a 8c3e
00000040: 5f1f 0a3f ee24 553e c516 993e 1462 583e
00000050: bd12 953e 12fe ef3e 197c 5a3e a483 d63e
00000060: b32e f43d 14cd da3e e38d 363e b4a8 ca3e
00000070: 712c c93e 0bc5 1d3f 0db4 123f fc8b df3e
0.13872474 0.49422503 0.4174032 0.3580318 0.2720095 0.30928156 0.29527363 0.21299468
0.32054406 0.41439644 0.48702112 0.40825382 0.22932656 0.14822233 0.25757083 0.2746154
0.5395412 0.20814869 0.29900184 0.21131164 0.2911586 0.46873528 0.21336402 0.4189731
0.1192297 0.42734587 0.17827563 0.39581835 0.3929172 0.6162879 0.57305986 0.43661487

net.9.weight f4 [1, 32]
00000000: 690d b23b a4d7 c9bd a5f3 8c3d 280c 49bd
00000010: ee88 003d 4fdc 813b 11e2 933d 8acc adbc
00000020: 99b7 333d 5837 f43d 55d2 aabd 9929 b53d
00000030: 581b d53c 49c7 bd3c c536 2dbc ee18 0cbd
00000040: b655 18be 6ed4 703d 17e9 36bd bda1 9ebc
00000050: ff60 34bd 5d47 dc3d 2673 083d 2f54 cebd
00000060: 96cc 6cbb 9035 873d 00e0 073d c1eb 903d
00000070: 6631 323d f154 fcbd e0c2 9bbd 1f9b a0bd
0.0054337275 -0.09855583 0.06882409 -0.04908386 0.031380586 0.0039630304 0.07220853 -0.021215696
0.043876264 0.119246185 -0.08340899 0.08845825 0.026014015 0.023166316 -0.01057214 -0.034203462
-0.14876446 0.05879634 -0.044655886 -0.019364232 -0.044037815 0.10755799 0.03331294 -0.100746505
-0.0036132685 0.06602013 0.033172607 0.070762165 0.04350414 -0.12320889 -0.07605529 -0.07842087

net.0.weight f4 [32, 1]
00000000: befe d1be fbf4 093f 34c0 23bf b8bb 49bd
00000010: 372c 04be b2a7 7e3f 83a0 12bf 1591 413f
00000020: dbbb 953e fe45 55bf 67d8 823f 0140 103f
00000030: 37c2 17be ff90 0fbf c0cc b7be a1eb 97be
00000040: bb48 f63e cac4 f53e 0bb4 27bf c3ee 2bbf
00000050: c2ef 733e b1e3 cd3e cccc fabd 84b1 5bbf
00000060: 901e ad3e ef4a 16bf ec48 4dbf 5333 773f
00000070: 75aa 54bf 5c3e 2f3f fb78 89be d587 85be
-0.41014665 0.53889436 -0.63965154 -0.04925129 -0.12907492 0.9947463 -0.5727617 0.75612
0.29244885 -0.83309925 1.0222291 0.5634766 -0.14820181 -0.5608062 -0.358984 -0.29671958
0.48102364 0.480017 -0.655091 -0.67161196 0.23821929 0.40212777 -0.12246093 -0.8581774
0.3381238 -0.5870809 -0.80189395 0.9656269 -0.83072597 0.6845453 -0.26850113 -0.26080194

net.0.bias f4 [32]
00000000: c5f4 b5be f088 4d3f 0633 4f3f a947 2c3f
00000010: 678b 2ebf 3443 b73c 432a a1be 8301 bd3e
00000020: de51 4cbf 0117 513f a248 f6be 30f8 8cbd
00000030: a78e 53be ec14 713f 4aa2 ee3e b9ef fbbe
00000040: 474b 473e 82dd f93e 7a99 6c3f fded 643e
00000050: 05be 7fbd b8b7 413f 773d 353f 48aa 66be
00000060: 6828 2ebf 2dd0 f0be 26e6 3ebf 5a2b d7be
00000070: 4026 f83e f52d 603f 1047 25bf 68cb 373f
-0.35538307 0.80287075 0.8093723 0.67296845 -0.6818146 0.022370912 -0.31477556 0.36915216
-0.7981242 0.81675726 -0.4810229 -0.068832755 -0.20659886 0.9417255 0.46608192 -0.4920633
0.1946231 0.4880181 0.92421687 0.2235641 -0.062437076 0.7567096 0.7079691 -0.22525895
-0.68030405 -0.47033826 -0.7456993 -0.42025262 0.48466682 0.87570125 -0.6456156 0.7179475
